Model: "CNN_AF"
_________________________________________________________________
 Layer (type)                Output Shape              Param #   
=================================================================
 conv2d (Conv2D)             (None, 1246, 1, 3)        18        
                                                                 
 batch_normalization (Batch  (None, 1246, 1, 3)        12        
 Normalization)                                                  
                                                                 
 max_pooling2d (MaxPooling2  (None, 623, 1, 3)         0         
 D)                                                              
                                                                 
 conv2d_1 (Conv2D)           (None, 619, 1, 5)         80        
                                                                 
 batch_normalization_1 (Bat  (None, 619, 1, 5)         20        
 chNormalization)                                                
                                                                 
 max_pooling2d_1 (MaxPoolin  (None, 309, 1, 5)         0         
 g2D)                                                            
                                                                 
 conv2d_2 (Conv2D)           (None, 305, 1, 10)        260       
                                                                 
 batch_normalization_2 (Bat  (None, 305, 1, 10)        40        
 chNormalization)                                                
                                                                 
 max_pooling2d_2 (MaxPoolin  (None, 152, 1, 10)        0         
 g2D)                                                            
                                                                 
 conv2d_3 (Conv2D)           (None, 149, 1, 20)        820       
                                                                 
 batch_normalization_3 (Bat  (None, 149, 1, 20)        80        
 chNormalization)                                                
                                                                 
 max_pooling2d_3 (MaxPoolin  (None, 74, 1, 20)         0         
 g2D)                                                            
                                                                 
 conv2d_4 (Conv2D)           (None, 70, 1, 20)         2020      
                                                                 
 batch_normalization_4 (Bat  (None, 70, 1, 20)         80        
 chNormalization)                                                
                                                                 
 max_pooling2d_4 (MaxPoolin  (None, 35, 1, 20)         0         
 g2D)                                                            
                                                                 
 dropout (Dropout)           (None, 35, 1, 20)         0         
                                                                 
 flatten (Flatten)           (None, 700)               0         
                                                                 
 dense (Dense)               (None, 100)               70100     
                                                                 
 dense_1 (Dense)             (None, 10)                1010      
                                                                 
 dense_2 (Dense)             (None, 2)                 22        
                                                                 
=================================================================
Total params: 74562 (291.26 KB)
Trainable params: 74446 (290.80 KB)
Non-trainable params: 116 (464.00 Byte)
_________________________________________________________________
['S11', 'S36', 'S39', 'S79', 'S23', 'S14', 'S33', 'S42', 'S22', 'S35', 'S68', 'S0', 'S27', 'S26']
…
