Model: "sequential"
_________________________________________________________________
 Layer (type)                Output Shape              Param #   
=================================================================
 conv2d (Conv2D)             (None, 1246, 1, 3)        18        
                                                                 
 batch_normalization (Batch  (None, 1246, 1, 3)        12        
 Normalization)                                                  
                                                                 
 max_pooling2d (MaxPooling2  (None, 623, 1, 3)         0         
 D)                                                              
                                                                 
 conv2d_1 (Conv2D)           (None, 619, 1, 5)         80        
                                                                 
 batch_normalization_1 (Bat  (None, 619, 1, 5)         20        
 chNormalization)                                                
                                                                 
 max_pooling2d_1 (MaxPoolin  (None, 309, 1, 5)         0         
 g2D)                                                            
                                                                 
 flatten (Flatten)           (None, 1545)              0         
                                                                 
 reshape (Reshape)           (None, 103, 15)           0         
                                                                 
 lstm (LSTM)                 (None, 50)                13200     
                                                                 
 flatten_1 (Flatten)         (None, 50)                0         
                                                                 
 dense (Dense)               (None, 10)                510       
                                                                 
 dense_1 (Dense)             (None, 2)                 22        
                                                                 
=================================================================
Total params: 13862 (54.15 KB)
Trainable params: 13846 (54.09 KB)
Non-trainable params: 16 (64.00 Byte)
_________________________________________________________________
['S11', 'S36', 'S39', 'S79', 'S23', 'S14', 'S33', 'S42', 'S22', 'S35', 'S68', 'S0', 'S27', 'S26']
…
